model/model.pth (torch, 1740 bytes, 2 tensors)

fc.weight f4 [5, 10]
00000000: 2ddc 4b3e 3cdc aa3d df93 0ebe 9e67 123e
00000010: 0221 ec3d adf4 72bc 10fd dc3d af39 7dbe
00000020: 3c13 123e 43b5 8ebe d0bd 0fbe 8dfb 99be
00000030: 5496 b1bd 1f88 043e 441c 2e3e 0505 923d
00000040: 28bc 123e 886a 3f3e 2ba0 8abe 5a22 82be
00000050: 71dd 82be f14f 863d e1dd 883e 4d3e 35be
00000060: 5a0e 0f3e 41ff 03bd b35f 113e 6ec8 913e
00000070: a6fc fabd 33a3 6d3e 75cf 96be 2671 003e
00000080: 5b00 043d 959e 9eba dba9 59be 4d76 0ebe
00000090: 1ddb 9b3d f13c 133e 793e 8d3e d100 8cbe
000000a0: 8cb3 67be 39b8 913e 92ba 6abe 08bb 573e
000000b0: 3f7f 16be 48de adbd 35cd 133e ccbc 803c
000000c0: ada6 83be 95a9 40be
0.19908209 0.083427876 -0.13923596 0.1429734 0.11529733 -0.014828843 0.10790455 -0.24729036
0.1426515 -0.27872667 -0.14037251 -0.3007473 -0.08671251 0.12942551 0.1700297 0.07129864
0.14329588 0.18692982 -0.27075323 -0.25416833 -0.2555957 0.06558216 0.2673178 -0.17699547
0.13970318 -0.03222585 0.14196663 0.28473228 -0.1225522 0.23206787 -0.29455152 0.12543163
0.0322269 -0.0012101704 -0.21256201 -0.13912316 0.07610152 0.14378716 0.27586725 -0.27344373
-0.22627085 0.28460863 -0.22922733 0.2106744 -0.14696978 -0.084896624 0.14433749 0.015715025
-0.257131 -0.1881469

fc.bias f4 [5]
00000000: 4642 d93d 3320 673c 7f25 92be 0f69 65be
00000010: a111 19be
0.10608344 0.014106798 -0.28544232 -0.22403358 -0.14948131
